Transformer/pytorch_time_series_model_loss_OK_norm.pth (torch, 202731 bytes, 92 tensors)

encoder.layers.0.self_attn.linears.0.weight f4 [4, 4]
0	0xbec6cb51	-0.38826993
1	0xbf437297	-0.76346725
2	0x3e0f42f4	0.13990384
3	0xbef2fd3b	-0.47458825
4	0xbf0c56d2	-0.5481998
5	0xbee4376c	-0.44573534
6	0xbeb2b478	-0.34903312
7	0x3f459326	0.77177656
8	0xbf464f33	-0.774646
9	0xbd1216e9	-0.03566638
10	0x3eb63d68	0.35593724
11	0xbeb9fa26	-0.3632366
12	0x3e2a4741	0.16628744
13	0x3f0b68ac	0.5445659
14	0x3f19507d	0.5988844
15	0x3f44e66a	0.76914084

encoder.layers.0.self_attn.linears.0.bias f4 [4]
0	0x3c60d9de	0.013723819
1	0x3f0a1a26	0.5394615
2	0xbe0eb759	-0.13937129
3	0xbea0b832	-0.3139053

encoder.layers.0.self_attn.linears.1.weight f4 [4, 4]
0	0xbf4efa49	-0.80850655
1	0x3c8c3688	0.017115846
2	0x3f396d73	0.7243263
3	0xbec685f2	-0.38774067
4	0xbf396ebc	-0.7243459
5	0xbe9e55cd	-0.30924836
6	0x3f5e4887	0.8682942
7	0x3ebfd55a	0.37467462
8	0xbebb9951	-0.3664041
9	0x3f1a8f50	0.6037493
10	0xbe85986d	-0.26092854
11	0xbd7abe3b	-0.061216574
12	0xbf2d8aec	-0.677901
13	0x3ec89d09	0.39182308
14	0x3f65df1c	0.8979356
15	0x3e229dfc	0.15880579

encoder.layers.0.self_attn.linears.1.bias f4 [4]
0	0xbdbdb93e	-0.09263848
1	0x3ef20b46	0.47274226
2	0xbe21abcb	-0.1578819
3	0xbeb15fb7	-0.34643337

encoder.layers.0.self_attn.linears.2.weight f4 [4, 4]
0	0x3eb61662	0.35563952
1	0xbec9e158	-0.39429736
2	0xbe3b2932	-0.18277434
3	0x3f69f8aa	0.91395056
4	0x3eedae13	0.4642187
5	0x3e4809b7	0.19534956
6	0xbdb0d529	-0.08634407
7	0x3e34f02d	0.17669745
8	0xbf18fcc8	-0.59760714
9	0x3eb28037	0.34863445
10	0x3df3a5fb	0.11896893
11	0xbf3d70f6	-0.7400049
12	0x3eae5967	0.34052584
13	0x3e577727	0.21041547
14	0x3f32ad68	0.69795847
15	0xbe95dd5d	-0.2927045

encoder.layers.0.self_attn.linears.2.bias f4 [4]
0	0xbd1e91ef	-0.038713392
1	0x3ed2be87	0.41160986
2	0xbe012a6f	-0.12613843
3	0xbecb7500	-0.397377

encoder.layers.0.self_attn.linears.3.weight f4 [4, 4]
0	0x3e300e78	0.1719302
1	0xbddbd265	-0.10733489
2	0x3f0a7c97	0.5409636
3	0xbed5988a	-0.4171794
4	0xbf65e58c	-0.89803386
5	0x3ea31d56	0.3185832
6	0xbeab9209	-0.33509853
7	0x3e6b2e6b	0.22966926
8	0xbf00b006	-0.5026859
9	0xbf28b481	-0.6590043
10	0xbf1e4bc8	-0.61834383
11	0xbea2243e	-0.31668276
12	0x3f133c84	0.57514215
13	0xbe73a8ff	-0.23794936
14	0xbee36c05	-0.4441835
15	0x3f215a5f	0.6302852

encoder.layers.0.self_attn.linears.3.bias f4 [4]
0	0xbd1b64da	-0.037937976
1	0x3ef90cda	0.48642617
2	0xbd55ba82	-0.05217982
3	0xbeb686a9	-0.35649613

encoder.layers.0.feed_forward.w_1.weight f4 [32, 4]
0	0x3ec047df	0.37554833
1	0xbe053ae3	-0.13010745
2	0xbe698073	-0.22802906
3	0xbe828be7	-0.25497362
4	0x3eb42c46	0.35190028
5	0xbece8da6	-0.40342444
6	0x3e4c6845	0.1996165
7	0xbeb66a5b	-0.35628018
8	0x3ea262dc	0.3171605
9	0xbebb0335	-0.36525884
10	0x3e8fc903	0.28083047
11	0xbe419c49	-0.18907274
12	0x3e44af70	0.19207549
13	0xbe9fc42b	-0.31204352
14	0x3d9ca4b6	0.076486036
15	0x3ee40694	0.4453627
16	0xbd048dbf	-0.032361742
17	0x3d8d30cb	0.06894072
18	0xbedc325a	-0.43007165
19	0xbe8e33e5	-0.27773967
20	0xbe80a889	-0.25128582
21	0xbe34bff8	-0.17651355
22	0x3dc6486b	0.096817814
23	0x3e97d761	0.2965651
24	0xbe5ff527	-0.21870862
25	0xbe8f98c9	-0.28046253
26	0xbea497b5	-0.32146993
27	0xbe2a76e2	-0.16646913
28	0x3e8c5786	0.27410525
29	0xbdd5cd40	-0.10439539
30	0x3ed2b4bb	0.4115351
31	0x3e412e18	0.1886524
32	0x3e7cd570	0.24690795
33	0x3ebf5a49	0.3737357
34	0x3d673be8	0.056453615
35	0xbe10251b	-0.14076655
36	0x3ea601c1	0.32423213
37	0x3ca3c46b	0.01999112
38	0xbca1f721	-0.01977116
39	0xbe3db000	-0.1852417
40	0xbe0f3d51	-0.13988234
41	0x3e8c213b	0.27369103
42	0xbe31081d	-0.17288251
43	0xbe873e55	-0.26414743
44	0x3d979909	0.07402236
45	0x3d92d3fb	0.07169338
46	0xbd469020	-0.048477292
47	0x3e8f4f16	0.27990025
48	0x3e6dde67	0.23229371
49	0x3e99381f	0.2992563
50	0xbdbc58c0	-0.09196615
51	0xbec1b7ef	-0.37835643
52	0xbe09a6f1	-0.1344259
53	0xbe8edbd9	-0.27902105
54	0xbde761ae	-0.11297928
55	0xbe7a7893	-0.24460058
56	0xbec0f65a	-0.3768795
57	0xbe6bb3f8	-0.23017871
58	0x3e892520	0.26786137
59	0xbda9444f	-0.08264982
60	0xbe8086bb	-0.2510279
61	0xbc2ab6b2	-0.0104195345
62	0xbdfe4857	-0.124161415
63	0xbe91214b	-0.28345713
64	0x3e7952ab	0.24347942
65	0x3eb0ef02	0.34557348
66	0x3eb7d25d	0.35902682
67	0xbee43e11	-0.44578603
68	0x3ed1169e	0.40837568
69	0x3e322628	0.17397368
70	0xbebe184b	-0.3712791
71	0xbd3e17ed	-0.046409536
72	0x3ea6d456	0.32583874
73	0x3e13ea41	0.1444483
74	0xbe05289e	-0.13003775
75	0x3cf9c2ed	0.030488456
76	0xbe228b96	-0.1587356
77	0xbe27b676	-0.16378197
78	0xbdfea022	-0.12432887
79	0x3df4afb1	0.11947573
80	0x3e54d11f	0.20782898
81	0x3ec53c23	0.38522443
82	0xbe1f4cb7	-0.15556608
83	0xbe7494fc	-0.23884958
84	0xbe87f141	-0.2655125
85	0xba975d09	-0.0011548112
86	0xbea68c0e	-0.32528728
87	0x3ebcbc34	0.36862338
88	0xbdeed42c	-0.11661562
89	0x3e0a3fc9	0.13500895
90	0x3e927a5c	0.28608978
91	0x3e9b5247	0.3033621
92	0xbe879d6e	-0.26487297
93	0xbeb82341	-0.35964397
94	0x3ea3e09c	0.320073
95	0x3eb51c36	0.35373086
96	0x3e1697ed	0.14706393
97	0x3e61b828	0.22042906
98	0xbdc94c94	-0.09829059
99	0xbdba2250	-0.09088576
100	0x3dd490e1	0.10379196
101	0xbe99f838	-0.30072188
102	0x3e1f5cd9	0.15562762
103	0x3e4237bd	0.18966575
104	0xbeb96d04	-0.36215985
105	0xbe3b2fae	-0.18279907
106	0xbcdd3bd4	-0.027006067
107	0x3db200c9	0.08691556
108	0xbecfb555	-0.40568033
109	0xbce8d250	-0.028420597
110	0xbc8c136f	-0.01709911
111	0x3d62bbeb	0.055354994
112	0x3e2b54c2	0.16731551
113	0x3dab8092	0.08374132
114	0xbe16f01b	-0.1474003
115	0x3eae8767	0.3408768
116	0x3e5aa04d	0.21350212
117	0x3e0943fd	0.13404842
118	0xbc628841	-0.013826431
119	0xbe864f97	-0.26232597
120	0xbe2bbd33	-0.16771393
121	0xbe09b1bf	-0.13446711
122	0xbea74303	-0.32668313
123	0x3d6cf603	0.057851803
124	0xbe832c94	-0.25619948
125	0xbeeb7d1d	-0.4599389
126	0xbec4b94b	-0.38422617
127	0xbe981aec	-0.2970804

encoder.layers.0.feed_forward.w_1.bias f4 [32]
0	0xbed5fa7d	-0.4179267
1	0xbe89ea55	-0.26936594
2	0x3e5ef44d	0.21772881
3	0x3e26441f	0.16236924
4	0xbe220156	-0.15820822
5	0x3eabbc4b	0.33542094
6	0xbe2effc4	-0.17089754
7	0x3e1f58ae	0.15561172
8	0x3c2a0566	0.010377264
9	0xbe91aa62	-0.28450304
10	0xbeade41f	-0.33963105
11	0xbede7137	-0.4344575
12	0xbe5d01a6	-0.2158266
13	0xbe96cb4b	-0.29451975
14	0xbd54146a	-0.05177728
15	0x3e8161f8	0.25270057
16	0x3bcb8a56	0.0062115593
17	0x3da739e3	0.08165338
18	0x3e9f433a	0.31105977
19	0x3ef556fb	0.47917923
20	0xbe9136ea	-0.2836221
21	0xbd7644f5	-0.060124356
22	0x3d84107a	0.06448455
23	0x3d9d3c27	0.07677489
24	0x3e0bdf1a	0.13659325
25	0x3ec8d5fb	0.39225754
26	0x3edeef03	0.43541726
27	0x3dc568cd	0.0963913
28	0x3d3c1acf	0.045924004
29	0x3e5736b4	0.21016961
30	0x3e5ce36e	0.21571133
31	0x3e434d9a	0.19072571

encoder.layers.0.feed_forward.w_2.weight f4 [4, 32]
0	0xbb7630e8	-0.0037565771
1	0xbd9d9626	-0.07694654
2	0x3e6bc1ad	0.230231
3	0xbdc731de	-0.09726308
4	0xbdf0d2fa	-0.117589906
5	0xbd3f9e5f	-0.046781894
6	0xbd1a29f8	-0.03763768
7	0xbe32b054	-0.17450076
8	0xbce57435	-0.028009513
9	0x3d24beb6	0.04022094
10	0x3e8637bb	0.26214394
11	0xbe5a7879	-0.21335019
12	0xbe74180a	-0.23837295
13	0xbec12db3	-0.37730178
14	0xbea479d6	-0.32124203
15	0xbebfd532	-0.37467343
16	0xbd18d11f	-0.03730881
17	0x3e39037a	0.18067732
18	0x3eaefdaa	0.34177905
19	0xbe697340	-0.2279787
20	0xbe6aedc1	-0.22942258
21	0xbe82b85f	-0.2553129
22	0xbe01e537	-0.12685095
23	0xbe9cd1ee	-0.30628914
24	0x3dfa93c2	0.12235214
25	0xbc668bf6	-0.014071455
26	0xbe46e328	-0.1942259
27	0x3eb804b3	0.35941085
28	0xbe33eb4e	-0.1757023
29	0xbeaeebc1	-0.3416424
30	0x3eab1608	0.33415246
31	0x3e029776	0.1275309
32	0x3d29d90d	0.04146676
33	0x3de0dae6	0.109792516
34	0x3ed0fbe0	0.40817165
35	0xbe44f28c	-0.1923315
36	0x3e7c16c7	0.24618064
37	0x3eb10547	0.3457434
38	0xbdea9782	-0.11454679
39	0xbeb514ca	-0.35367423
40	0x3e66c9b8	0.22537887
41	0x3df9346f	0.12168204
42	0xbd9fa44a	-0.077950075
43	0xbe197ed6	-0.1498979
44	0x3e766e83	0.24065594
45	0xbe891dde	-0.267806
46	0xbd5cfb6c	-0.053950712
47	0x3e5a7c1b	0.21336405
48	0x3e81f4ee	0.2538218
49	0x3e2fc3de	0.17164561
50	0xbd8ba138	-0.068178594
51	0x3e01e238	0.12683952
52	0xbe6e364d	-0.23262902
53	0x3ec93376	0.39297074
54	0x3e92ec28	0.28695798
55	0x3e9912f9	0.29897287
56	0x3e9f3850	0.3109765
57	0xbe9748bc	-0.2954768
58	0x3c54bf79	0.012985104
59	0x3db6a3fe	0.08917998
60	0xbe93ffac	-0.28906
61	0x3e4af04d	0.1981823
62	0xbeb58939	-0.35456255
63	0xbe9acfbb	-0.3023661
64	0xbe5e3c52	-0.21702698
65	0xbe62e267	-0.22156678
66	0x3e3e98e0	0.18613005
67	0xbe7adeb8	-0.24499023
68	0xbd8e0952	-0.069353715
69	0xbae4eda3	-0.0017465841
70	0xbe642aa0	-0.22281885
71	0xbe68a579	-0.22719373
72	0xbd345fc3	-0.044036638
73	0x3ebc62dc	0.36794174
74	0x3ef6d14f	0.48206565
75	0x3dd305d9	0.1030385
76	0xbe087f21	-0.13329746
77	0xbe32b953	-0.17453508
78	0x3ebe0e02	0.37120062
79	0xbe5319b1	-0.20615269
80	0x3e607ce4	0.21922642
81	0xbc365e8e	-0.011130942
82	0xbeac9f58	-0.3371532
83	0x3e8d14dd	0.2755498
84	0x3eb572c9	0.35439137
85	0xbe63a2de	-0.22230098
86	0x3ee0329d	0.43788615
87	0xbe79929c	-0.24372333
88	0x3d9772db	0.07394954
89	0xbe26e267	-0.16297303
90	0x3e1afeb8	0.1513623
91	0x3ebd8e40	0.3702259
92	0xbe6d4230	-0.2316978
93	0xbd7b75a5	-0.06139149
94	0x3e9c3ac6	0.3051359
95	0xbe33c3e6	-0.17555198
96	0x3e8ef241	0.279192
97	0xbee660c1	-0.44995692
98	0xbdcc9b16	-0.09990518
99	0x3e4a12b2	0.19733694
100	0xbbb56baa	-0.005536516
101	0x3dc370a5	0.095429696
102	0xbe304575	-0.17213996
103	0x3e5e3adf	0.21702145
104	0x3e781269	0.24225773
105	0xbe6e0be2	-0.2324672
106	0xbeb5a37a	-0.35476285
107	0x3de5cce0	0.112207174
108	0xbe0c5ed1	-0.13708045
109	0x3e95770e	0.29192394
110	0xbd93f099	-0.07223625
111	0xbea8543b	-0.32876763
112	0x3e011a19	0.12607612
113	0xbeca07a4	-0.39458954
114	0xbeee6af8	-0.46565986
115	0xbed8f2d2	-0.42372757
116	0xbe8e8c7d	-0.2784156
117	0xbe9339e0	-0.28755093
118	0x3e4ac64f	0.19802211
119	0x3e20129a	0.15632096
120	0xbd66c2b6	-0.056338035
121	0x3d867fa8	0.06567317
122	0x3e13bdb1	0.1442783
123	0xbe7613f5	-0.2403105
124	0x3dd8e4e0	0.105905294
125	0xbee17123	-0.4403163
126	0xbebdfd5c	-0.3710736
127	0x3ceb0351	0.028688105

encoder.layers.0.feed_forward.w_2.bias f4 [4]
0	0xbd6d7685	-0.057974357
1	0x3de4937a	0.111609414
2	0x3d437948	0.047723085
3	0x3c146b4a	0.009058783

encoder.layers.0.sublayer.0.norm.a_2 f4 [4]
0	0x3f6d6082	0.92725384
1	0x3f77704f	0.96655744
2	0x3f7ea020	0.9946308
3	0x3f81c5c1	1.0138475

encoder.layers.0.sublayer.0.norm.b_2 f4 [4]
0	0xbd98a522	-0.074533716
1	0xbd22fa3d	-0.039789427
2	0x3cbeeaf6	0.023305397
3	0xbc8dd64c	-0.017314099

encoder.layers.0.sublayer.1.norm.a_2 f4 [4]
0	0x3f7b4c40	0.98163223
1	0x3f8657f3	1.049559
2	0x3f68c095	0.90918857
3	0x3f855061	1.0415155

encoder.layers.0.sublayer.1.norm.b_2 f4 [4]
0	0xbc996ab6	-0.018727642
1	0x3c994dee	0.018713918
2	0x3d74d207	0.05977061
3	0xbcae2880	-0.021259546

encoder.layers.1.self_attn.linears.0.weight f4 [4, 4]
0	0x3ee87579	0.45402125
1	0xbe55ab95	-0.20866235
2	0xbf30454c	-0.6885574
3	0x3f0ca149	0.549336
4	0x3f35bf98	0.70995474
5	0xbf030a86	-0.5118793
6	0x3e984fb2	0.29748303
7	0xbf43cfd0	-0.7648897
8	0xbf279141	-0.65456015
9	0xbf3e74f7	-0.74397224
10	0xbf23aa32	-0.6393157
11	0x3d656090	0.056000292
12	0xbd1953fe	-0.037433617
13	0x3e38deec	0.18053788
14	0x3f13e053	0.57764167
15	0x3e41fa00	0.18943024

encoder.layers.1.self_attn.linears.0.bias f4 [4]
0	0x3c7c1e5d	0.015388099
1	0x3ed1975a	0.40935785
2	0xbe3c73ab	-0.18403499
3	0xbea1e193	-0.31617412

encoder.layers.1.self_attn.linears.1.weight f4 [4, 4]
0	0xbf1f464e	-0.6221665
1	0xbec95940	-0.39325905
2	0x3f1359e2	0.57559025
3	0x3dd8a8f6	0.10579102
4	0x3c8fa06a	0.017532546
5	0x3e897e37	0.26854107
6	0xbee7eccb	-0.45297846
7	0x3e4d816f	0.20068906
8	0x3f0cbf91	0.5497981
9	0x3c46f8bb	0.012144263
10	0xbf17c7da	-0.59289324
11	0xbf031b4f	-0.51213545
12	0x3f3c8542	0.73640835
13	0xbf6f68c7	-0.9351925
14	0x3f1dd134	0.61647344
15	0x3e5a2b7d	0.21305652

encoder.layers.1.self_attn.linears.1.bias f4 [4]
0	0xbbccf767	-0.0062550786
1	0x3f08205e	0.5317439
2	0xbe5b26be	-0.21401498
3	0xbeaa7066	-0.33288878

encoder.layers.1.self_attn.linears.2.weight f4 [4, 4]
0	0xbf4d79f7	-0.8026423
1	0x3eb83501	0.3597794
2	0x3e4de2d9	0.20106067
3	0xbef718b7	-0.48261043
4	0xbf58c33d	-0.8467291
5	0x3f4d4e39	0.80197483
6	0xbe1adb80	-0.15122795
7	0x3d939539	0.07206196
8	0xbc8fe4a6	-0.017565083
9	0x3ec91d58	0.392802
10	0x3f4381eb	0.76370114
11	0x3f0904d8	0.53523016
12	0xbeffc189	-0.49952343
13	0xbcbdcbf2	-0.023168538
14	0x3ed15261	0.40883163
15	0xbed153b4	-0.40884173

encoder.layers.1.self_attn.linears.2.bias f4 [4]
0	0x3aa32606	0.0012447245
1	0x3ef92ed7	0.48668548
2	0x3ccb6d2d	0.024832333
3	0xbec64a2e	-0.3872847

encoder.layers.1.self_attn.linears.3.weight f4 [4, 4]
0	0x3f33d2ca	0.70243514
1	0x3f02e7e5	0.5113509
2	0x3ecbfa2c	0.39839303
3	0xbf262265	-0.6489623
4	0xbe580085	-0.21093948
5	0x3bb5dff7	0.0055503803
6	0x3f3aa591	0.72908884
7	0xbf0761dd	-0.528837
8	0x3f27a4fa	0.6548611
9	0x3f3c3495	0.73517734
10	0xbe2cc611	-0.16872431
11	0xbf717479	-0.9431835
12	0xbf0f17e6	-0.5589584
13	0xbd314229	-0.043275986
14	0xbf2489fc	-0.6427305
15	0x3e5f19ca	0.21787181

encoder.layers.1.self_attn.linears.3.bias f4 [4]
0	0xbd622196	-0.05520781
1	0x3efa3034	0.488649
2	0xbd188020	-0.037231565
3	0xbec893c6	-0.39175242

encoder.layers.1.feed_forward.w_1.weight f4 [32, 4]
0	0xbdc3d434	-0.09561959
1	0xbda23528	-0.07920295
2	0xbd868d71	-0.065699466
3	0xbd5fc4e4	-0.05463113
4	0x3e68190f	0.22665809
5	0xbe59c214	-0.21265441
6	0xbd4ae4e4	-0.049534693
7	0x3e4adcc7	0.19810782
8	0xbe3874cf	-0.18013309
9	0xbea2cfc4	-0.31799138
10	0xbef37e28	-0.47557187
11	0xbe1c9a3c	-0.1529321
12	0x3e9a9282	0.30189902
13	0x3eb208e3	0.34772405
14	0x3da4c83f	0.080460064
15	0x3e9eef49	0.31041935
16	0xbe1162c1	-0.14197828
17	0xbd18a68b	-0.037268203
18	0x3b3fb3ac	0.002925138
19	0xbe450aa9	-0.19242348
20	0x3d85d5a0	0.06534886
21	0xbd9bdafa	-0.07610126
22	0xbe402875	-0.18765433
23	0xbe213631	-0.15743329
24	0xbe5e4f51	-0.21709944
25	0x3c6014b0	0.013676807
26	0x3e0c7625	0.13716944
27	0xbe28d582	-0.16487697
28	0xbd22fcfd	-0.03979205
29	0x3ed4e403	0.4158021
30	0x3ea7e21e	0.327897
31	0x3e8daf03	0.27672586
32	0x3d288c6b	0.041149538
33	0x3dadea91	0.084920056
34	0x3e02a723	0.1275907
35	0xbe9e3959	-0.30903128
36	0xbd5c6e6e	-0.05381625
37	0xbe5e9bfe	-0.21739194
38	0xbe3b783e	-0.18307588
39	0xbe7ad2c6	-0.24494466
40	0xbd12a944	-0.035805956
41	0xbec4035a	-0.38283807
42	0x3e6edb50	0.23325849
43	0xbb4601cf	-0.003021348
44	0xbd6575d4	-0.056020573
45	0xbf01d88f	-0.5072107
46	0x3e82a273	0.25514564
47	0xbe073426	-0.13203487
48	0xbd156550	-0.036473572
49	0x3e8f3f59	0.27978018
50	0xbd522a44	-0.05130984
51	0xbbaf1ab9	-0.0053437618
52	0xbeccd432	-0.40005642
53	0x3ed5e435	0.4177567
54	0xbe965f04	-0.29369366
55	0x3dedc584	0.11609939
56	0x3ec20a3c	0.37898433
57	0xbeccbb6f	-0.3998675
58	0xbed5642f	-0.41677997
59	0xbe24ad06	-0.16081628
60	0x3e7f59d9	0.24936618
61	0x3e74eca8	0.23918402
62	0x3e518263	0.20459895
63	0x3a66285b	0.0008779817
64	0x3eb78339	0.35842302
65	0xbe3fa338	-0.18714607
66	0x3ea46163	0.3210555
67	0xbe98fc07	-0.29879782
68	0xbec98afe	-0.39363855
69	0x3dfd9aa9	0.12383015
70	0x3e92a749	0.28643253
71	0xbeb602f9	-0.35549143
72	0xbda561d4	-0.080753
73	0xbef2967c	-0.47380435
74	0xbe53aa70	-0.20670485
75	0x3e0fd6b8	0.14046752
76	0x3e95f6b2	0.29289776
77	0x3ea9704e	0.33093494
78	0xbe9cdd1e	-0.3063745
79	0x3eb6a457	0.35672256
80	0x3cc080e1	0.023498954
81	0x3deb529a	0.114903644
82	0x3e3b438a	0.18287483
83	0x3e6e6626	0.23281154
84	0xbd831da9	-0.064021416
85	0xbdeb9b04	-0.11504176
86	0x3e7c9aec	0.24668473
87	0xbe2df216	-0.1698688
88	0x3cfeffb1	0.031127783
89	0x3ed0d348	0.40786195
90	0x3d910137	0.0708031
91	0xbec6052a	-0.38675815
92	0xbe860319	-0.26174238
93	0x3d9f89f1	0.07789982
94	0x3dca7eaa	0.098874405
95	0xbe998380	-0.2998314
96	0xbe5e7b98	-0.21726835
97	0xbb911d11	-0.004428514
98	0xbc6360c9	-0.013878056
99	0x3d5bcf87	0.05366471
100	0xbe53952e	-0.20662376
101	0x3dd08d16	0.1018316
102	0xbdeb3525	-0.11484746
103	0xbeadbfcd	-0.33935395
104	0xbe8f98e4	-0.28046334
105	0x3e95a7ec	0.29229677
106	0xbe22252c	-0.15834492
107	0xbe1edc3d	-0.15513702
108	0xbe8ca333	-0.2746826
109	0xbc920790	-0.017825872
110	0xbdd789cc	-0.105243295
111	0x3e97b2be	0.29628557
112	0x3eb9770f	0.36223647
113	0x3eaed04b	0.3414329
114	0x3eb958e4	0.3620063
115	0xbdcee07c	-0.10101411
116	0xbea819c8	-0.3283217
117	0xbe3e5a18	-0.18589056
118	0x3dea9069	0.11453325
119	0xbd22fc2b	-0.039791267
120	0x3c84f446	0.01622976
121	0xbeee045b	-0.46487698
122	0x3e297564	0.16548687
123	0xbc9114c4	-0.017710097
124	0xbc891243	-0.01673234
125	0xbde8db1e	-0.11369918
126	0xbe6196a0	-0.22030115
127	0x3eb5bb39	0.35494402

encoder.layers.1.feed_forward.w_1.bias f4 [32]
0	0xbec4eb4e	-0.38460773
1	0xbec03f83	-0.37548456
2	0x3e40b153	0.18817644
3	0x3e51d4f7	0.20491396
4	0xbe6e409c	-0.23266834
5	0x3eb78dfc	0.35850513
6	0xbe3be844	-0.18350321
7	0x3e2cf5c4	0.16890627
8	0x3c64787a	0.0139447395
9	0xbe9d11da	-0.30677682
10	0xbecf7eee	-0.40526527
11	0xbec77857	-0.38959
12	0xbeaa98ad	-0.33319607
13	0xbe52dcaa	-0.20591989
14	0xbde22cba	-0.11043687
15	0x3e6a4e96	0.2288154
16	0xbd87d68c	-0.066327184
17	0x3d5ac042	0.053406008
18	0x3e9f71bb	0.31141457
19	0x3ee9c90d	0.45661202
20	0xbea13738	-0.3148744
21	0xbdb63404	-0.0889664
22	0x3da104b5	0.07862226
23	0x3cefd236	0.029275041
24	0x3de54809	0.1119538
25	0x3ec4ad1f	0.3841333
26	0x3ed1ee5f	0.41002175
27	0x3e17bdc9	0.14818491
28	0x3db1de2b	0.08684953
29	0x3dca22a7	0.09869891
30	0x3e5ced0b	0.215748
31	0x3e60d7e7	0.2195736

encoder.layers.1.feed_forward.w_2.weight f4 [4, 32]
0	0x3e9444ee	0.2895884
1	0x3e7103c6	0.23536596
2	0x3e727729	0.23678268
3	0xbe7ba431	-0.24574353
4	0xbd88d6ec	-0.06681618
5	0x3aed3629	0.0018097806
6	0x3d9cdcd0	0.07659304
7	0x3ea899be	0.32929796
8	0xbea294e5	-0.31754223
9	0x3ea392e7	0.31948015
10	0xbe804028	-0.25048947
11	0xbe249426	-0.16072139
12	0x3e7c4db9	0.24639024
13	0xbe4bc777	-0.19900309
14	0xbe2c2b4a	-0.16813388
15	0x3e1fd842	0.1560984
16	0xbe01f9b4	-0.1269291
17	0x3eb954ee	0.3619761
18	0xbe99cc80	-0.30038834
19	0xbe8ff5b9	-0.2811716
20	0x3e8c968a	0.27458602
21	0xbe28c880	-0.16482735
22	0xbd8611a7	-0.06546336
23	0x3db64a33	0.08900871
24	0x3ea4a5ec	0.32157838
25	0x3ebbdde8	0.3669274
26	0xbe8b558c	-0.27213705
27	0xbe5e15fc	-0.21688074
28	0xbe2b86ed	-0.16750689
29	0x3db3119f	0.08743595
30	0x3e6a0145	0.22852047
31	0x3d83072c	0.06397852
32	0xbc8603f6	-0.01635931
33	0x3e87eb19	0.26546553
34	0x3e18fa97	0.14939342
35	0xbe9584a1	-0.2920275
36	0xbec87c05	-0.3915712
37	0xbdde90c7	-0.10867458
38	0x3d7fab98	0.062419504
39	0x3eae9be9	0.34103325
40	0x3b6844e9	0.0035441464
41	0x3e51dd25	0.20494516
42	0xbe9f28c8	-0.310858
43	0x3e71871b	0.23586695
44	0xbe0ede90	-0.13952088
45	0xbec9fcb8	-0.39450622
46	0x3ca071e1	0.019585552
47	0xbc6f4d17	-0.014605782
48	0x3eac416e	0.3364367
49	0x3e16f905	0.14743431
50	0xbd309e1b	-0.04311953
51	0xbe258bac	-0.16166562
52	0xbd6274e4	-0.055287257
53	0x3e97753e	0.29581636
54	0xbe5afda1	-0.21385814
55	0xbeb5bbb5	-0.35494772
56	0xbec1107c	-0.3770789
57	0xbe2142f2	-0.15748194
58	0xbe54c3ac	-0.20777768
59	0xbe8a27fc	-0.2698363
60	0x3e7026c6	0.23452291
61	0x3d4b83c6	0.049686216
62	0x3ea8ec29	0.32992676
63	0xbe290b63	-0.1650825
64	0xbce020f4	-0.027359463
65	0xbd1718ab	-0.03688876
66	0x3e205276	0.15656456
67	0x3ea41d6f	0.32053706
68	0xbe797af4	-0.24363309
69	0x3ec571e1	0.38563445
70	0xbe95034a	-0.29104072
71	0x3e7695dd	0.24080606
72	0xbe0dae90	-0.13836122
73	0x3e00ff2b	0.12597339
74	0xbd61ece9	-0.055157576
75	0x3d468e8b	0.048475783
76	0xbdc3dc8e	-0.09563552
77	0x3eb9923d	0.36244383
78	0x3e51aff7	0.20477282
79	0x3d21c6c0	0.039496183
80	0xbebd8fc5	-0.3702375
81	0x3edd6cd1	0.43247083
82	0xbdbbdb03	-0.091726325
83	0x3daa20ca	0.08307035
84	0xbd8b3d0d	-0.06798754
85	0xbe70e377	-0.23524271
86	0x3d9c6cca	0.07637937
87	0xbe171ffb	-0.14758293
88	0xbdbbb91e	-0.09166168
89	0x3e88a481	0.26688007
90	0x3e62d3f8	0.22151172
91	0xbdd2dcda	-0.1029603
92	0xbe80ebef	-0.25180003
93	0x3d10819b	0.03527985
94	0xbde1f74b	-0.110334955
95	0xbebeba85	-0.37251678
96	0x3dffd26d	0.124913074
97	0x3daa1e22	0.08306529
98	0x3c113301	0.008862258
99	0xbdbceaa4	-0.09224442
100	0xbd4b18ba	-0.049584128
101	0x3d6c7546	0.05772903
102	0xbdee085c	-0.11622688
103	0xbee0877a	-0.4385336
104	0x3d9e249d	0.07721827
105	0x3e0dc1b7	0.13843428
106	0x3e984abb	0.29744515
107	0x3eb8269f	0.35966966
108	0x3eb49bd8	0.3527515
109	0x3c9f61da	0.019455839
110	0xbe7be59b	-0.24599306
111	0xbea10782	-0.3145104
112	0x3e91c037	0.2846696
113	0xbd8f715f	-0.07004046
114	0xbd804362	-0.06262852
115	0xbecf2756	-0.40459698
116	0x3e8ed85a	0.27899438
117	0xbed41ec1	-0.41429713
118	0xbeb05727	-0.34441492
119	0xbdc548bf	-0.09633016
120	0xbd23d6c5	-0.039999742
121	0x3e834cc3	0.25644502
122	0x3db429b0	0.08797014
123	0xbeb59689	-0.35466412
124	0xbeadce23	-0.33946332
125	0x3e8701fc	0.263687
126	0x3d0631e0	0.03276241
127	0x3dfacfc7	0.12246662

encoder.layers.1.feed_forward.w_2.bias f4 [4]
0	0xbd6bf147	-0.057603147
1	0x3d6a43a2	0.057193406
2	0x3d354b41	0.04426122
3	0x3ce8d084	0.02841974

encoder.layers.1.sublayer.0.norm.a_2 f4 [4]
0	0x3f885b75	1.065291
1	0x3f81b9fa	1.013488
2	0x3f7cd9fd	0.98770124
3	0x3f71354d	0.94221956

encoder.layers.1.sublayer.0.norm.b_2 f4 [4]
0	0xbb283498	-0.0025666114
1	0x3ca2e32f	0.01988372
2	0xbc2404f0	-0.010010943
3	0x3d67bae4	0.056574717

encoder.layers.1.sublayer.1.norm.a_2 f4 [4]
0	0x3f8584dd	1.0431172
1	0x3f8419d8	1.0320387
2	0x3f7656d3	0.96226233
3	0x3f592d82	0.84835064

encoder.layers.1.sublayer.1.norm.b_2 f4 [4]
0	0x3d16a6d0	0.03678018
1	0x3cef2ca6	0.029196095
2	0xbd101ef9	-0.035185788
3	0x3e1f64dc	0.15565819

encoder.norm.a_2 f4 [4]
0	0x3f6683ee	0.9004506
1	0x3f73f7f9	0.9530025
2	0x3f831072	1.0239394
3	0x3f7e4c3d	0.9933508

encoder.norm.b_2 f4 [4]
0	0xbccfa2ef	-0.025346247
1	0xbd1950ed	-0.037430692
2	0x3d09f7b5	0.033683497
3	0x3c21a110	0.00986506

decoder.layers.0.self_attn.linears.0.weight f4 [4, 4]
0	0x3df07f40	0.11743021
1	0xbe9a2d2a	-0.30112582
2	0xbe930f9a	-0.2872284
3	0xbf73b336	-0.9519533
4	0xbeb9b1be	-0.3626842
5	0x3f14cb36	0.58122575
6	0xbf38a03a	-0.72119486
7	0xbeb99f56	-0.36254376
8	0xbf06553f	-0.52473825
9	0xbf0f61e1	-0.56008726
10	0x3f3fb9ce	0.7489289
11	0xbdc360db	-0.09539958
12	0xbf66a656	-0.9009756
13	0xbe374fe2	-0.17901567
14	0x3f48f99b	0.7850587
15	0xbf30281f	-0.6881122

decoder.layers.0.self_attn.linears.0.bias f4 [4]
0	0x3cd6cae1	0.026219787
1	0x3ee99c63	0.45627126
2	0xbd25e77f	-0.040503975
3	0xbe801e5b	-0.2502316

decoder.layers.0.self_attn.linears.1.weight f4 [4, 4]
0	0xbe2971ca	-0.16547313
1	0xbeeefec1	-0.46678737
2	0x3d4e2025	0.050323624
3	0x3ea1556d	0.31510487
4	0xbefa705a	-0.48913842
5	0xbf520129	-0.8203302
6	0xbe8f7f6c	-0.28026903
7	0x3f50fd33	0.8163635
8	0xbdaf0802	-0.08546449
9	0xbe729ca3	-0.23692565
10	0x3eb1365e	0.3461179
11	0xbf0bbe57	-0.5458731
12	0xbf8028ca	-1.0012448
13	0x3ea93eb2	0.33055645
14	0x3e96f043	0.2948018
15	0xbf4883db	-0.78326195

decoder.layers.0.self_attn.linears.1.bias f4 [4]
0	0xba3b07bb	-0.0007134636
1	0x3f079c9b	0.52973336
2	0xbcd82026	-0.026382517
3	0xbec2fa12	-0.38081414

decoder.layers.0.self_attn.linears.2.weight f4 [4, 4]
0	0xbea82aff	-0.32845303
1	0x3eccf9c5	0.4003431
2	0x3e9ce788	0.30645394
3	0xbf78cea2	-0.97190297
4	0x3e72ca7b	0.23710053
5	0x3ee106c4	0.43950474
6	0x3ea57698	0.32317042
7	0xbf3bc148	-0.733418
8	0xbed5fe2e	-0.41795486
9	0xbdba6c93	-0.0910274
10	0x3dfb1386	0.12259583
11	0x3e01d0b3	0.12677269
12	0x3d409a17	0.04702195
13	0xbd04ceed	-0.032423902
14	0xbf03c0d6	-0.5146612
15	0x3e00cf57	0.12579094

decoder.layers.0.self_attn.linears.2.bias f4 [4]
0	0xbdf59770	-0.11991775
1	0x3f05e956	0.5230917
2	0xbe263584	-0.16231352
3	0xbeeaf438	-0.4588945

decoder.layers.0.self_attn.linears.3.weight f4 [4, 4]
0	0xbefe7987	-0.49702093
1	0xbf5262e2	-0.82182133
2	0x3efe28e0	0.4964056
3	0xbf3aba55	-0.7294057
4	0xbf14996d	-0.5804661
5	0x3ea5aba5	0.32357517
6	0x3d09114f	0.033463772
7	0xbefc7b8d	-0.49313012
8	0x3f367d47	0.7128491
9	0xbf0699cf	-0.52578443
10	0x3e8e86a4	0.27837098
11	0x3f6d5c48	0.92718935
12	0xbdd9dd41	-0.10637904
13	0x3f183ace	0.5946473
14	0xbe8da56a	-0.27665263
15	0xbee08b03	-0.43856058

decoder.layers.0.self_attn.linears.3.bias f4 [4]
0	0x3d45f7b7	0.048331942
1	0x3ed2a4e4	0.41141427
2	0xbe579ed3	-0.2105668
3	0xbe625835	-0.22103961

decoder.layers.0.src_attn.linears.0.weight f4 [4, 4]
0	0xbf50144e	-0.8128098
1	0x3e7dcf4e	0.24786112
2	0xbf5ded83	-0.8669054
3	0xb9d30fae	-0.00040256738
4	0xbf0d757f	-0.5525741
5	0xbcc272a4	-0.023736306
6	0xbee92315	-0.45534578
7	0x3e5a3a37	0.2131127
8	0x3f21e6fc	0.6324308
9	0x3e27a36b	0.16370933
10	0x3f25b15c	0.64723754
11	0x3ec963aa	0.3933385
12	0x3e8935e9	0.26798943
13	0xbe59adb5	-0.2125767
14	0xbf140d44	-0.5783274
15	0x3e24319b	0.16034548

decoder.layers.0.src_attn.linears.0.bias f4 [4]
0	0xbdce01a4	-0.10058907
1	0x3ef974a8	0.48721814
2	0xbdb300d6	-0.08740394
3	0xbef5b9f9	-0.47993448

decoder.layers.0.src_attn.linears.1.weight f4 [4, 4]
0	0x3e69228c	0.22767085
1	0xbed24ae8	-0.41072774
2	0xbf4a69c1	-0.7906762
3	0xbeea4de7	-0.4576256
4	0xbf342ee7	-0.7038407
5	0xbf18480f	-0.5948495
6	0x3f4bc822	0.79602253
7	0xbeb45700	-0.35222626
8	0x3f1f7357	0.6228537
9	0x3f00ca34	0.5030854
10	0x3ed939a6	0.42426795
11	0x3f589805	0.84606963
12	0xbf7ec67c	-0.99521613
13	0xbf31c880	-0.69446564
14	0x3f26e6a2	0.6519567
15	0x3f4aaebe	0.79172885

decoder.layers.0.src_attn.linears.1.bias f4 [4]
0	0xbc839a72	-0.016064856
1	0x3ed3d726	0.41375083
2	0xbdc383fd	-0.09546659
3	0xbeb6d4d0	-0.35709238

decoder.layers.0.src_attn.linears.2.weight f4 [4, 4]
0	0xbcd96936	-0.026539426
1	0x3eb417ef	0.3517451
2	0xbf1dbc1f	-0.61615175
3	0x3f0c7e27	0.54879993
4	0xbf1c9e23	-0.611788
5	0x3d61b192	0.055100985
6	0xbf0d4e31	-0.55197436
7	0x3f32a0d8	0.6977668
8	0xbf2892e7	-0.65849155
9	0x3f42c4ed	0.76081735
10	0x3d41ebf6	0.04734417
11	0xbd23280e	-0.03983312
12	0x3f584966	0.84487
13	0x3f34e8f1	0.7066794
14	0xbe822eae	-0.2542624
15	0x3d5f3078	0.054489583

decoder.layers.0.src_attn.linears.2.bias f4 [4]
0	0xbdb38c7c	-0.0876703
1	0x3efbea4a	0.49202186
2	0xbe008fd5	-0.12554868
3	0xbe570ac9	-0.21000208

decoder.layers.0.src_attn.linears.3.weight f4 [4, 4]
0	0x3f03cd20	0.5148487
1	0x3ecef387	0.40420172
2	0x3f44a9b1	0.7682143
3	0xbd8a2a51	-0.067463525
4	0x3e3ae590	0.18251634
5	0xbea4aa98	-0.32161403
6	0xbebad5ca	-0.36491233
7	0xbe1eaeaf	-0.15496324
8	0x3eaa3301	0.33242038
9	0xbe3ea9f1	-0.18619515
10	0x3e871845	0.26385704
11	0xbeddc715	-0.4331595
12	0xbf273fd9	-0.653318
13	0xbf185c36	-0.595157
14	0x3d9ae359	0.075628944
15	0x3da620c4	0.08111718

decoder.layers.0.src_attn.linears.3.bias f4 [4]
0	0x3d8ba037	0.06817668
1	0x3ed42ad0	0.41438913
2	0xbe66dbd4	-0.22544795
3	0xbe724219	-0.23658027

decoder.layers.0.feed_forward.w_1.weight f4 [32, 4]
0	0x3e690b62	0.22758248
1	0x3ea2560f	0.31706282
2	0xbec5fd22	-0.38669688
3	0x3ef2ed5f	0.47446725
4	0x3d46d7cb	0.04854564
5	0xbda6cf27	-0.0814498
6	0x3e549cda	0.20762959
7	0xbdd38fb9	-0.10330147
8	0xbe4988a1	-0.19681026
9	0xbc4c2a2c	-0.012461226
10	0x3dae84c3	0.08521416
11	0x3e098b0b	0.13431947
12	0x3dc164f2	0.09443082
13	0xbe75a8f2	-0.23990229
14	0x3eccbe0e	0.3998875
15	0x3e93e7fd	0.2888793
16	0xbe7c9a5a	-0.24668255
17	0x3e12a74f	0.14321636
18	0xbd2653eb	-0.040607374
19	0x3eb4b089	0.35290936
20	0xbe4e3263	-0.20136409
21	0x3ec151e6	0.37757796
22	0x3e84e508	0.25955987
23	0xbe9d9671	-0.3077884
24	0x3eeea8ae	0.46613067
25	0x3ec6b642	0.38810927
26	0x3d41b74c	0.047293946
27	0x3e019bfe	0.12657163
28	0xbe9500df	-0.29102227
29	0x3ea2ed1b	0.31821522
30	0xbe49af81	-0.19695856
31	0x3b7d09e8	0.003861064
32	0x3dbe14c2	0.09281303
33	0x3d18a433	0.037265968
34	0xbec33a92	-0.38130623
35	0x3e7c0a12	0.24613217
36	0x3eccdf20	0.4001398
37	0xbec46540	-0.38358498
38	0x3cad08ea	0.021122415
39	0x3e25c045	0.16186626
40	0xbd88bebb	-0.06677004
41	0xbe34ab02	-0.1764336
42	0x3d403a51	0.046930615
43	0x3ed5fbbc	0.4179362
44	0x3e488d69	0.19585194
45	0x3e734e4a	0.23760334
46	0x3e067dc3	0.13133912
47	0x3e63551f	0.2220044
48	0xbeb25537	-0.3483064
49	0x3e7f8c9d	0.24955983
50	0xbe9942cf	-0.29933783
51	0x3e3506db	0.17678396
52	0xbea7aac7	-0.3274748
53	0xbe3e9de9	-0.18614925
54	0xbcf65e85	-0.030074367
55	0x3d9b8702	0.0759411
56	0xbe4412d9	-0.19147815
57	0x3e884370	0.2661395
58	0xbe89a5e7	-0.26884386
59	0xbe8a55a6	-0.2701847
60	0x3ec5967c	0.38591373
61	0x3e57ba34	0.21067125
62	0x3e416590	0.188864
63	0x3ecb16af	0.39665744
64	0xbd675182	-0.056474216
65	0xbe0a5f0d	-0.13512821
66	0x3ece25ca	0.40263206
67	0xbef314ac	-0.4747671
68	0x3e465a5d	0.19370408
69	0xbcce0f42	-0.02515376
70	0x3e425705	0.18978508
71	0xbe0f5dc0	-0.14000607
72	0xbe8d6a3c	-0.27620113
73	0xbe33a55a	-0.17543545
74	0x3e94fe80	0.29100418
75	0xbd7f81ee	-0.06237977
76	0xbe5cbd7b	-0.21556656
77	0x3e94acad	0.2903799
78	0x3e14e414	0.1454013
79	0x3d204b0f	0.03913408
80	0xbe378b8c	-0.17924327
81	0x3ef3257a	0.4748953
82	0xbdf0ae4a	-0.11751993
83	0x3e7a4710	0.2444117
84	0xbec6dcf2	-0.38840443
85	0x3ed285ee	0.41117805
86	0xbe5258cf	-0.2054169
87	0xbeafa814	-0.3430792
88	0xbd9aabc0	-0.0755229
89	0x3e5142b3	0.204356
90	0x3e0eeb85	0.13957031
91	0xbd677b08	-0.056513816
92	0xbed4067c	-0.41411197
93	0x3e0f040e	0.1396639
94	0xbe21d646	-0.15804395
95	0x3d3c8c48	0.04603222
96	0x3e079f43	0.13244347
97	0xbecead23	-0.40366468
98	0x3e8aa2ed	0.27077428
99	0x3e99d461	0.30044845
100	0xbef9a38c	-0.4875759
101	0x3e93c0ad	0.28857937
102	0x3cabe59c	0.02098351
103	0xbd87fcd4	-0.0664002
104	0x3eaa5239	0.33265856
105	0xbe2984c3	-0.16554551
106	0x3d5711d8	0.05250725
107	0x3dbe2d78	0.09286016
108	0xbd132e20	-0.03593266
109	0xbddd887d	-0.10817049
110	0x3eea6a2a	0.45784122
111	0x3e44f5c9	0.19234385
112	0xbe0eb756	-0.13937125
113	0xbe85baab	-0.2611898
114	0x3df241ab	0.118289314
115	0x3e2f588f	0.17123626
116	0x3dac15ea	0.08402617
117	0x3ed5366b	0.4164308
118	0x3ec525b7	0.38505337
119	0x3e732bc2	0.23747161
120	0xbecbf3f6	-0.39834565
121	0x3d958c51	0.07302154
122	0x3df64c11	0.12026227
123	0x3ee54232	0.44777066
124	0x3dc275b4	0.09495106
125	0xbeb035e2	-0.3441611
126	0x3e2ac02c	0.1667487
127	0x3daacf7c	0.08340356

decoder.layers.0.feed_forward.w_1.bias f4 [32]
0	0xbe9a1890	-0.30096865
1	0xbed26f14	-0.4110037
2	0x3e12dc32	0.1434181
3	0x3e9f2c28	0.31088376
4	0xbe119b2e	-0.14219353
5	0x3ed891a8	0.42298627
6	0x3e7a182d	0.24423285
7	0x3eb642f8	0.35597968
8	0xbca3ad8d	-0.019980216
9	0xbe46ce83	-0.19414715
10	0xbe6165aa	-0.22011438
11	0xbec3abb8	-0.38216949
12	0xbe6a85b0	-0.2290256
13	0xbe098ebd	-0.13433357
14	0xbdf79200	-0.12088394
15	0x3e340ed9	0.17583789
16	0x3d44c2ca	0.048037328
17	0x3d48182a	0.04885117
18	0x3eec8bab	0.46200308
19	0x3ec203d6	0.37893552
20	0xbe905de6	-0.2819664
21	0xbd39b4f4	-0.045338586
22	0x3dc9f2d5	0.0986077
23	0x3e1fdf92	0.15612629
24	0x3dd6c785	0.10487274
25	0x3ed363ee	0.41287178
26	0x3ed1f941	0.41010478
27	0x3d81d383	0.06339171
28	0x3e18300e	0.14862081
29	0x3e5c1f85	0.21496399
30	0x3ea7313d	0.32654753
31	0x3e4393d5	0.19099362

decoder.layers.0.feed_forward.w_2.weight f4 [4, 32]
0	0xbe1062b4	-0.14100152
1	0xbe76e2a9	-0.24109901
2	0xbe6feafd	-0.23429485
3	0x3ee6c7b3	0.45074233
4	0x3ed9a05a	0.4250515
5	0xbe1b8d3e	-0.15190598
6	0xbf126cb0	-0.57197094
7	0x3dba0a07	0.09083944
8	0xbea5a3b7	-0.32351467
9	0xbeca5475	-0.3951756
10	0x3da39565	0.07987479
11	0xbe8c0e63	-0.27354726
12	0x3e1a20b1	0.15051533
13	0x3ed87bb3	0.42281875
14	0x3be25605	0.006907227
15	0xbed84aa3	-0.42244443
16	0xbeb6ed32	-0.3572784
17	0xbed9ae2b	-0.42515692
18	0x3e6cef0b	0.23138063
19	0xbe10b869	-0.14132847
20	0x3eba09b0	0.36335516
21	0x3c9af010	0.018913299
22	0x3e38e971	0.18057801
23	0x3ecaa680	0.39580154
24	0xbe0cffd6	-0.13769469
25	0xbe4312b4	-0.19050103
26	0xbe8cdbb8	-0.27511382
27	0xbe71cf98	-0.23614347
28	0x3ebad96d	0.36494008
29	0x3ebe60f9	0.3718336
30	0xbe658162	-0.22412637
31	0x3da8a82d	0.08235202
32	0x3ed47c6e	0.41501182
33	0xbe9645a9	-0.2935002
34	0x3e92a696	0.2864272
35	0x3eccf6ef	0.40032145
36	0x3d47c4a5	0.04877152
37	0xbe5f1303	-0.21784596
38	0x3f1388a6	0.57630384
39	0x3e610614	0.21974975
40	0xbd68724a	-0.05674962
41	0x3e7c03a7	0.24610768
42	0x3e8ea3a3	0.2785922
43	0xbe9c9586	-0.30582827
44	0xbe9b34c3	-0.30313691
45	0x3ec3b210	0.38221788
46	0xbee058fc	-0.4381789
47	0x3eb8bec2	0.36083037
48	0x3df72da3	0.120692514
49	0x3e39fecc	0.18163604
50	0x3e934fb1	0.28771737
51	0x3dd9c2a7	0.1063283
52	0xbeaeb3cb	-0.34121546
53	0xbe96c6d0	-0.29448557
54	0xbf08d938	-0.5345645
55	0x3ecb3919	0.39692
56	0xbe28f616	-0.16500124
57	0xbe73133a	-0.23737803
58	0x3e09b868	0.13449252
59	0xbe6266d1	-0.22109534
60	0x3d3e6176	0.046479665
61	0xbea45c79	-0.321018
62	0x3ebaadd9	0.3646076
63	0xbe421e3f	-0.1895685
64	0x3d6ba0c1	0.057526354
65	0xbeb45934	-0.35224307
66	0x3e84bb33	0.25924072
67	0xbe1fed87	-0.15617953
68	0xbee426a9	-0.44560745
69	0xbf1aed91	-0.6051875
70	0xbef698dd	-0.481635
71	0xbeb7cb7f	-0.35897443
72	0x3ead7f05	0.3388597
73	0xbe7f4a9d	-0.24930806
74	0xbe25003b	-0.16113369
75	0xbc783e61	-0.015151591
76	0xbeb87709	-0.36028317
77	0xbcbe7dff	-0.023253439
78	0x3e37298c	0.17886943
79	0xbe07a867	-0.13247834
80	0xbec7b38a	-0.39004165
81	0x3e6d4ff4	0.23175031
82	0xbe6b3d3d	-0.2297258
83	0x3e5160a5	0.20447023
84	0xbe90e2cf	-0.2829804
85	0xbe544b7b	-0.20731919
86	0xbe872b78	-0.26400352
87	0xbea3db63	-0.32003316
88	0xbdf3493f	-0.11879205
89	0xbee15a79	-0.44014338
90	0xbe662f5b	-0.22479002
91	0x3dc219f9	0.0947761
92	0x3daae145	0.08343748
93	0xbec11194	-0.37708724
94	0xbea464e8	-0.32108235
95	0xbece5186	-0.40296572
96	0x3da0afed	0.07846055
97	0xbebabf38	-0.36474013
98	0x3e87fb9b	0.26559147
99	0xbd3513a4	-0.044208184
100	0x3e1fb65e	0.15596911
101	0x3e8273fb	0.2547911
102	0x3f0e3b66	0.55559385
103	0x3e0a5b64	0.13511425
104	0x3eb4cb8c	0.35311544
105	0xbdaa3dde	-0.083125815
106	0x3c9ef692	0.019404683
107	0xbe8fcd29	-0.28086212
108	0xbe722888	-0.23648274
109	0xbea5188f	-0.322453
110	0x3eba270a	0.3635791
111	0xbe8a9197	-0.270642
112	0xbe2fc42b	-0.17164676
113	0xbe82d7e0	-0.25555325
114	0x3e111111	0.14166667
115	0x3db0bfc7	0.086303286
116	0xbddac9ce	-0.106830224
117	0x3e9fedb8	0.31236053
118	0x3a23c57e	0.0006247385
119	0x3e50e64a	0.20400348
120	0xbe5aba22	-0.21360067
121	0x3dee6128	0.11639625
122	0xbe8f5789	-0.27996472
123	0x3ef74fc3	0.4830304
124	0xbef25312	-0.47329003
125	0x3e484390	0.19557023
126	0x3d3235c1	0.043508295
127	0xbe8be079	-0.27319697

decoder.layers.0.feed_forward.w_2.bias f4 [4]
0	0xbd41237f	-0.047152992
1	0x3d875ea0	0.06609845
2	0xbdee68af	-0.116410606
3	0x3deba0f3	0.11505308

decoder.layers.0.sublayer.0.norm.a_2 f4 [4]
0	0x3f896540	1.0734024
1	0x3f72e9e1	0.9488812
2	0x3f854190	1.0410633
3	0x3f7034e5	0.9383071

decoder.layers.0.sublayer.0.norm.b_2 f4 [4]
0	0x3d552097	0.052033033
1	0x3d81aa95	0.06331364
2	0x3d4b9a9d	0.049707998
3	0xbc494c03	-0.012286189

decoder.layers.0.sublayer.1.norm.a_2 f4 [4]
0	0x3f841f80	1.0322113
1	0x3f87383c	1.0564036
2	0x3f79aac8	0.97526217
3	0x3f86e10b	1.0537428

decoder.layers.0.sublayer.1.norm.b_2 f4 [4]
0	0xbdaf661a	-0.08564396
1	0x3d6d9373	0.058001947
2	0x3dbba82e	0.09162937
3	0xbd7e46c7	-0.062079217

decoder.layers.0.sublayer.2.norm.a_2 f4 [4]
0	0x3f89aab1	1.0755216
1	0x3f88a476	1.067519
2	0x3f57ece1	0.84345824
3	0x3f936f94	1.1518426

decoder.layers.0.sublayer.2.norm.b_2 f4 [4]
0	0xbd386401	-0.045017246
1	0x3cd52fa1	0.026023688
2	0x3d23da1a	0.04000292
3	0x3d833bfc	0.064079255

decoder.layers.1.self_attn.linears.0.weight f4 [4, 4]
0	0x3f229511	0.6350871
1	0x3e2212f8	0.15827549
2	0x3e446fb1	0.19183232
3	0x3f68619b	0.90773934
4	0x3f54d639	0.8313938
5	0x3e2bc37c	0.1677379
6	0xbeca5fb6	-0.39526147
7	0xbe95c42a	-0.29251224
8	0x3f5b48d7	0.8565802
9	0xbec73e51	-0.3891473
10	0xbf0a3050	-0.5397997
11	0xbe038dee	-0.1284711
12	0xbe0ac6f6	-0.1355246
13	0xbe24b5b1	-0.16084935
14	0x3ecd8ab8	0.40144897
15	0x3eab2a04	0.33430493

decoder.layers.1.self_attn.linears.0.bias f4 [4]
0	0xbe0b1fab	-0.13586299
1	0x3f00f38d	0.5037163
2	0xbe2cc4b7	-0.16871916
3	0xbe6b5a68	-0.22983706

decoder.layers.1.self_attn.linears.1.weight f4 [4, 4]
0	0x3f5bb51a	0.85823214
1	0x3eabfdc6	0.3359205
2	0xbefec811	-0.49762014
3	0xbe00fd36	-0.12596592
4	0xbeb14f81	-0.3463097
5	0xbe23ed12	-0.16008404
6	0x3dfb2ef7	0.12264817
7	0x3f0ca595	0.5494016
8	0x3f5bd9cf	0.85879225
9	0x3f3ac07d	0.72949964
10	0x3dfe67b0	0.124221206
11	0x3e8e8439	0.27835253
12	0x3f1cbb4b	0.61223286
13	0x3ef662b4	0.4812218
14	0xbcb0c783	-0.02157951
15	0xbeea1989	-0.45722607

decoder.layers.1.self_attn.linears.1.bias f4 [4]
0	0xbe0c0291	-0.13672854
1	0x3ec7bb02	0.39009863
2	0xbce1a4b3	-0.027544355
3	0xbecf2a76	-0.40462083

decoder.layers.1.self_attn.linears.2.weight f4 [4, 4]
0	0xbec31b80	-0.38106918
1	0x3f0e0cb4	0.55488133
2	0xbef7b4d4	-0.48380148
3	0xbf24a54f	-0.6431474
4	0xbe985dae	-0.29758972
5	0xbf4179ef	-0.7557668
6	0xbf171bce	-0.590268
7	0xbf50beaa	-0.8154093
8	0xbeeee5f4	-0.46659815
9	0xbe991992	-0.2990232
10	0x3f31821a	0.69339144
11	0xbe17cc79	-0.14824094
12	0xbf32b293	-0.6980373
13	0x3f4a6759	0.79063946
14	0xbf1adf85	-0.60497314
15	0x3f271930	0.6527281

decoder.layers.1.self_attn.linears.2.bias f4 [4]
0	0xbdb64b11	-0.089010365
1	0x3ee5aab2	0.44856793
2	0xbe081d6b	-0.13292472
3	0xbe754ab6	-0.23954281

decoder.layers.1.self_attn.linears.3.weight f4 [4, 4]
0	0x3eff10ed	0.498176
1	0x3eea38c9	0.4574645
2	0x3f6161fc	0.8804014
3	0x3ea07839	0.31341723
4	0x3eb3d47f	0.3512306
5	0xbdb672e9	-0.08908636
6	0x3f232288	0.63724566
7	0x3ec1abea	0.37826473
8	0x3e64b652	0.22335175
9	0xbec4a87c	-0.38409793
10	0x3f1bd2c6	0.6086849
11	0xbe9b9166	-0.30384368
12	0xbe86382d	-0.26214734
13	0xbf2fd9da	-0.6869179
14	0x3ea106d7	0.3145053
15	0x3f4d76f9	0.8025966

decoder.layers.1.self_attn.linears.3.bias f4 [4]
0	0xbd3bfc97	-0.045895185
1	0x3ee7f9e6	0.45307845
2	0xbe71dea6	-0.2362009
3	0xbe90b815	-0.28265443

decoder.layers.1.src_attn.linears.0.weight f4 [4, 4]
0	0xbf73115a	-0.9494835
1	0xbf05261d	-0.5201128
2	0x3f0129d8	0.50454473
3	0x3f5e3a9b	0.86808175
4	0xbe17b6eb	-0.14815871
5	0x3f566088	0.83741045
6	0xbf1d3c3f	-0.61420053
7	0x3dbd7fe1	0.092529066
8	0xbed026b2	-0.40654522
9	0x3ea52937	0.32258007
10	0x3e03352d	0.12813254
11	0x3ec5294b	0.38508067
12	0xbe4102b9	-0.18848695
13	0x3f4448df	0.7667369
14	0x3e143096	0.14471659
15	0x3f2f34ab	0.6843974

decoder.layers.1.src_attn.linears.0.bias f4 [4]
0	0x3dab1afa	0.08354755
1	0x3ebcbd62	0.36863238
2	0xbe0ff48a	-0.14058128
3	0xbeb4522a	-0.35218936

decoder.layers.1.src_attn.linears.1.weight f4 [4, 4]
0	0xbf40cec1	-0.7531548
1	0xbf06a15f	-0.5258998
2	0x3ed73595	0.42033067
3	0x3f626fec	0.8845203
4	0xbe4f3c6f	-0.20237897
5	0x3f4ea0d9	0.80714184
6	0x3f346a7c	0.7047498
7	0x3f33354c	0.700032
8	0xbf512c72	-0.81708443
9	0x3dc011fa	0.09378429
10	0x3dd269fa	0.1027412
11	0xbf2a4a6e	-0.6651982
12	0xbf138493	-0.5762417
13	0xbde18458	-0.11011571
14	0xbeda6520	-0.42655277
15	0xbdc7fca7	-0.097649865

decoder.layers.1.src_attn.linears.1.bias f4 [4]
0	0xbcfab804	-0.030605324
1	0x3eed6eae	0.46373504
2	0xbca20730	-0.019778818
3	0xbef54ba8	-0.47909284

decoder.layers.1.src_attn.linears.2.weight f4 [4, 4]
0	0xbed93542	-0.42423445
1	0xbea65c60	-0.32492352
2	0x3ef88d5a	0.48545343
3	0xbd8455b8	-0.06461662
4	0x3ea4726e	0.32118553
5	0x3ee4edb5	0.44712606
6	0x3edd2e18	0.4319923
7	0x3da3f0c0	0.08004904
8	0x3f31f332	0.6951171
9	0x3f31b57f	0.69417566
10	0x3f1ddf1f	0.6166858
11	0x3e43e074	0.19128591
12	0x3eaf581a	0.34246904
13	0xbf313c05	-0.6923221
14	0xbe56c0b9	-0.20971955
15	0x3f1547cc	0.5831268

decoder.layers.1.src_attn.linears.2.bias f4 [4]
0	0x3da8fba5	0.082511224
1	0x3f050385	0.51958495
2	0xbdf9e434	-0.122017294
3	0xbeb412d1	-0.35170606

decoder.layers.1.src_attn.linears.3.weight f4 [4, 4]
0	0x3e1509f6	0.14554581
1	0xbde923b1	-0.11383761
2	0xbd50d947	-0.05098846
3	0x3ca98222	0.020691935
4	0x3cfa26db	0.030536106
5	0x3f1b45a6	0.6065315
6	0x3f090fe9	0.535399
7	0x3f3aee34	0.7301972
8	0xbeb06504	-0.3445207
9	0x3c5934bc	0.013257202
10	0x3ebcb775	0.36858717
11	0x3ef9dadb	0.48799786
12	0xbe049452	-0.12947205
13	0x3e1e6fc9	0.1547233
14	0xbe5a1893	-0.21298437
15	0xbf5b96d6	-0.8577703

decoder.layers.1.src_attn.linears.3.bias f4 [4]
0	0xbd5ede61	-0.054411296
1	0x3f0be9bd	0.5465353
2	0xbe7b0def	-0.24517034
3	0xbe9833e7	-0.29727098

decoder.layers.1.feed_forward.w_1.weight f4 [32, 4]
0	0xbea2bb10	-0.31783342
1	0x3ea878e4	0.32904732
2	0xbdb3facd	-0.08788071
3	0xbee73916	-0.4516074
4	0x3dc45602	0.09586717
5	0x3d3da431	0.046299163
6	0xbed6c2b8	-0.41945434
7	0xbe98f02c	-0.29870737
8	0x3dcf15e1	0.10111595
9	0xbdbc1a70	-0.0918473
10	0xbe5ec374	-0.21754247
11	0x3ed6bf40	0.41942787
12	0xbed5c41a	-0.41751176
13	0x3d07bd7b	0.033139687
14	0xbe8b3a04	-0.271927
15	0xbd979c47	-0.074028544
16	0x3c4caa2f	0.012491747
17	0xbe50b454	-0.2038129
18	0x3eaea6bf	0.34111592
19	0xbed8c0f9	-0.42334726
20	0x3ea40556	0.3203532
21	0xbe8dd75f	-0.27703378
22	0xbb2f9e64	-0.002679729
23	0x3e229dba	0.1588048
24	0x3dfee27d	0.12445543
25	0xbd1975cf	-0.037465867
26	0xbdd6b6b8	-0.104840696
27	0x3e908287	0.28224584
28	0x3e9d5f2a	0.30736667
29	0xbc734889	-0.014848837
30	0x3e008913	0.1255229
31	0x3e4426fa	0.19155493
32	0xbb2cb312	-0.0026351851
33	0xbeb9303e	-0.36169618
34	0x3d812a03	0.06306841
35	0xbef3a061	-0.47583297
36	0xbecd3f46	-0.40087336
37	0xbe9b0a9a	-0.30281526
38	0x3e16db1c	0.14732021
39	0x3ecbf782	0.3983727
40	0x3df9890a	0.12184341
41	0x3dba2c02	0.09090425
42	0x3e0406cd	0.1289322
43	0xbea66e04	-0.3250581
44	0x3d1e81cc	0.038698003
45	0x3d9f433f	0.07776498
46	0xbe962ae1	-0.2932959
47	0x3eebad78	0.46030784
48	0x3e5e1bbf	0.21690272
49	0x3edb957f	0.42887494
50	0xbd95c419	-0.07312793
51	0x3e6a75e6	0.22896537
52	0xbe1f2c87	-0.1554433
53	0x3e9100ff	0.28321072
54	0xbe542f9a	-0.20721284
55	0x3de08b7b	0.10964104
56	0xbd749eb6	-0.05972167
57	0xbe47da29	-0.19516815
58	0x3e4f10c3	0.20221238
59	0x3ef31d32	0.47483212
60	0xbe5c4bd2	-0.21513298
61	0x3d6051d8	0.054765552
62	0x3e9fef1b	0.3123711
63	0xbd090cdc	-0.03345953
64	0xbe3f949c	-0.18709034
65	0xbe81c07a	-0.2534216
66	0x3e175e23	0.14782004
67	0x3ea824ea	0.32840663
68	0x3e8b46f6	0.27202576
69	0xbec27666	-0.37980956
70	0x3eb2e52b	0.34940466
71	0xbd8999fe	-0.06718825
72	0xbe2078c7	-0.15671073
73	0x3e9b9b4b	0.30391917
74	0x3c4b23cb	0.01239867
75	0xbde46e07	-0.111537986
76	0x3e89c23f	0.2690601
77	0x3d32426b	0.043520372
78	0x3e8c7c31	0.274385
79	0x3dd5f835	0.10447732
80	0x3d8025cb	0.062572084
81	0xbd8ed8cf	-0.06974947
82	0xbe68b1a8	-0.2272402
83	0xbe43acd0	-0.19108891
84	0x3df50e61	0.11965633
85	0x3ecd764d	0.4012932
86	0xbe83bbc3	-0.25729188
87	0x3ea5d63a	0.32390004
88	0x3eb4786a	0.3524812
89	0x3e4c3ef9	0.19945897
90	0xbd7801d4	-0.06054862
91	0x3c217b80	0.009856105
92	0xbe5ce635	-0.21572192
93	0x3ddd1752	0.107954636
94	0xbda4608d	-0.08026228
95	0xbc3c525e	-0.011494247
96	0x3b034cf5	0.0020034884
97	0xbdf12475	-0.11774532
98	0xbe659193	-0.22418813
99	0x3ec59dab	0.38596854
100	0xbe60a4ec	-0.21937913
101	0x3ebbff64	0.36718285
102	0xbf0a27ad	-0.5396679
103	0x3de51a76	0.11186688
104	0x3d9dc91e	0.07704376
105	0xbcb59d27	-0.022169663
106	0xbda46ab4	-0.080281645
107	0x3e58f8bb	0.21188633
108	0x3eae5392	0.34048134
109	0x3ee6be22	0.45066935
110	0xbea25163	-0.31702718
111	0x3dffad95	0.1248428
112	0xbe8d6b0a	-0.27620727
113	0xbeba13eb	-0.3634332
114	0xbce026a4	-0.027362175
115	0xbeb95133	-0.36194763
116	0xbd3e61c3	-0.04647995
117	0x3ef0fddc	0.4706868
118	0xbd426db1	-0.04746789
119	0xbdc83a89	-0.0977679
120	0x3e2a9de5	0.16661794
121	0xbe3b90c2	-0.1831694
122	0x3eb94db9	0.3619211
123	0xbe574916	-0.21023974
124	0x3d999a9d	0.07500193
125	0x3ba9cfec	0.005182257
126	0xbed6eb93	-0.41976604
127	0x3e86e0fe	0.2634353

decoder.layers.1.feed_forward.w_1.bias f4 [32]
0	0xbec9e9e1	-0.39436248
1	0xbe4efd32	-0.20213774
2	0x3e6cda24	0.23130089
3	0x3e9ddd2c	0.30832803
4	0xbe264b23	-0.162396
5	0x3ec3ebe1	0.382659
6	0xbcff3ffc	-0.03115844
7	0x3e20eb6a	0.15714803
8	0x3e0bc82a	0.13650575
9	0xbd5d419f	-0.05401766
10	0xbeccf6ac	-0.40031946
11	0xbee1d4e0	-0.44107723
12	0xbe566906	-0.20938501
13	0xbe322646	-0.17397413
14	0x3d691bc4	0.056911245
15	0x3eafbe76	0.34324998
16	0x3d7ad32d	0.06123655
17	0x3bd2d3bc	0.006433932
18	0x3ea32e77	0.31871387
19	0x3ee49619	0.44645765
20	0xbeb7e3e5	-0.35916057
21	0x3e00b8b3	0.12570457
22	0xbc28bbcf	-0.010298683
23	0x3d70f602	0.05882836
24	0x3e6802d0	0.22657323
25	0x3f0e0e3c	0.5549047
26	0x3e9c425e	0.30519384
27	0x3d553007	0.052047756
28	0x3d42f462	0.047596343
29	0x3e940715	0.28911653
30	0x3e9af260	0.30263042
31	0x3e8a7d46	0.270487

decoder.layers.1.feed_forward.w_2.weight f4 [4, 32]
0	0xbe8edc30	-0.27902365
1	0xbe07b44b	-0.1325237
2	0x3e0e49db	0.13895361
3	0xbbc9ced8	-0.006158691
4	0xbeb8b8ab	-0.3607839
5	0xbec6576b	-0.3873857
6	0x3e28dbc7	0.16490088
7	0xbf000121	-0.5000172
8	0xbe6c9906	-0.23105249
9	0xbb629001	-0.0034570696
10	0x3e0ad3cf	0.13557361
11	0x3e9fb0d1	0.31189588
12	0xbeddf8f5	-0.43354002
13	0xbe98f07d	-0.29870978
14	0x3e9803cb	0.29690394
15	0x3e88fc5a	0.2675503
16	0xbe535b0e	-0.20640203
17	0xbe8ed527	-0.27896997
18	0x3e572bcc	0.21012801
19	0x3e1eeaf5	0.15519316
20	0xbd0653b1	-0.032794658
21	0x3d8468ad	0.06465278
22	0xbdad7931	-0.08470381
23	0xbe74f051	-0.23919798
24	0xbce44537	-0.027865035
25	0xbe0c575d	-0.13705201
26	0xbeaacdc1	-0.33360103
27	0xbe996bc8	-0.29965043
28	0x3e7b283d	0.24527068
29	0x3e0aaa58	0.13541543
30	0x3e435776	0.19076332
31	0x3d6e4c69	0.05817834
32	0xbf0b1f88	-0.5434499
33	0xbde5664b	-0.112011515
34	0xbe1b0c04	-0.15141302
35	0x3dfd897a	0.12379737
36	0xbe8f0ee7	-0.27941057
37	0x3f07a9ca	0.5299345
38	0x3ed32156	0.4123637
39	0x3e2c8336	0.16846928
40	0xbdb0bdd6	-0.08629958
41	0x3eae6770	0.34063292
42	0x3d940cd3	0.072290085
43	0x3ea322af	0.318624
44	0xbe769e31	-0.24083783
45	0xbc92b54c	-0.017908715
46	0x3eebe6b8	0.46074462
47	0x3e95d400	0.29263306
48	0x3efccd1e	0.49375242
49	0xbeac8e13	-0.33702144
50	0xbe64330d	-0.222851
51	0x3e87e41a	0.26541215
52	0xbe1ef37d	-0.15522571
53	0x3e62ae2b	0.22136752
54	0x3c3b79ba	0.011442596
55	0x3cadf043	0.02123273
56	0xbda40b05	-0.08009914
57	0x3da49299	0.08035774
58	0xbe0908ff	-0.13382338
59	0xbebc25e7	-0.36747667
60	0x3e7d9e7e	0.24767491
61	0x3e6b59ed	0.22983523
62	0x3dbd3cee	0.09240137
63	0xbe3cf6b0	-0.18453479
64	0x3e024837	0.1272286
65	0x3eca8dd0	0.3956132
66	0xbeccd01c	-0.40002525
67	0xbe71f397	-0.23628078
68	0xbebeea1e	-0.37287992
69	0xbea2acd4	-0.31772482
70	0xbec2b2ec	-0.38027132
71	0x3ebfe041	0.3747578
72	0xbe301e53	-0.17199068
73	0xbf020ee4	-0.5080397
74	0x3d04b8cd	0.032402802
75	0xbcc21280	-0.023690462
76	0xbe21bee0	-0.1579547
77	0xbecbd535	-0.39811102
78	0xbf1118d3	-0.56678504
79	0xbec258d0	-0.37958384
80	0xbf06a355	-0.52592975
81	0x3c652451	0.013985709
82	0xbea3168c	-0.3185314
83	0x3cad6876	0.021167975
84	0x3c163c42	0.00916964
85	0xbe8d149e	-0.27554792
86	0x3dc450c7	0.095857196
87	0x3cf80bd5	0.03027908
88	0xbe9f13d2	-0.3106981
89	0xbec7d574	-0.3903004
90	0x3e726ebf	0.23675059
91	0x3d026f13	0.03184421
92	0x3e1758b7	0.14779936
93	0xbea7af43	-0.32750902
94	0x3e8a2f47	0.26989195
95	0xbe6f18c5	-0.23349293
96	0x3d2bdd18	0.0419589
97	0x3efcd9ce	0.49384922
98	0xbeadfaca	-0.339804
99	0x3eb8f760	0.36126232
100	0x3e634ce8	0.22197306
101	0xbefb09ac	-0.49030817
102	0xbea0276b	-0.31280074
103	0xbe774e59	-0.24150981
104	0x3eb26023	0.34838971
105	0xbcd53e95	-0.026030818
106	0xbdcb0d4b	-0.09914645
107	0xbe3f1cf1	-0.18663384
108	0x3e8947fc	0.26812732
109	0x3e521295	0.20514901
110	0xbf177728	-0.59166193
111	0x3e435b9c	0.19077915
112	0xbf01976e	-0.5062169
113	0xbe2cf488	-0.16890156
114	0xbe6cdc63	-0.23130946
115	0x3eb6b02b	0.3568128
116	0xbc84a046	-0.016189706
117	0x3e8e2cea	0.27768642
118	0x3d4fbe13	0.05071838
119	0x3eb41f19	0.35179976
120	0x3c7da91b	0.015482212
121	0x3e6f5280	0.23371315
122	0xbdca415a	-0.09875746
123	0x3e1e2c9e	0.15446708
124	0xbeb783de	-0.35842794
125	0x3e7ba0dd	0.24573083
126	0x3ef5a05b	0.47973904
127	0x3e1e1fc9	0.15441813

decoder.layers.1.feed_forward.w_2.bias f4 [4]
0	0xbd33df0d	-0.04391389
1	0x3e035e10	0.12828851
2	0xbde23908	-0.11046034
3	0x3dd1ad02	0.10238077

decoder.layers.1.sublayer.0.norm.a_2 f4 [4]
0	0x3f93b4e5	1.153958
1	0x3f8102db	1.0078996
2	0x3f78b0cd	0.97144777
3	0x3f8a152e	1.0787714

decoder.layers.1.sublayer.0.norm.b_2 f4 [4]
0	0xbbd6c537	-0.0065542716
1	0x3d582d99	0.05277786
2	0xbd797dae	-0.060910873
3	0x3d95b1eb	0.07309326

decoder.layers.1.sublayer.1.norm.a_2 f4 [4]
0	0x3f974b5b	1.1819872
1	0x3f794163	0.973654
2	0x3f737fcf	0.95116895
3	0x3f6ec085	0.9326251

decoder.layers.1.sublayer.1.norm.b_2 f4 [4]
0	0xbd980ee0	-0.07424712
1	0xbd3f1168	-0.04664746
2	0x3db77cef	0.08959376
3	0x3d1bfe9f	0.038084622

decoder.layers.1.sublayer.2.norm.a_2 f4 [4]
0	0x3f8917ff	1.0710448
1	0x3f8fb4fc	1.1227107
2	0x3f6fd9fd	0.93692
3	0x3f8bd20c	1.0923476

decoder.layers.1.sublayer.2.norm.b_2 f4 [4]
0	0xbded48e2	-0.11586167
1	0xbd35af07	-0.044356372
2	0x3d0d4743	0.03449179
3	0x3dfc2a2e	0.12312733

decoder.norm.a_2 f4 [4]
0	0x3f54962b	0.8304164
1	0x3f6dec19	0.9293838
2	0x3f65a21f	0.897005
3	0x3f6b3962	0.91884434

decoder.norm.b_2 f4 [4]
0	0x3d158265	0.036501307
1	0xbc60d4c0	-0.013722599
2	0x3d4cb2e5	0.049975295
3	0xbacde8ea	-0.0015709673
